best_short_term_model.pth (torch, 46525 bytes, 5 tensors)

lstm.weight_ih_l0 f4 [200, 2]
000000 1b ae 76 3d ea 25 5e bd 14 6c c7 3d 25 06 a1 3d
       0.060224634 -0.054235376 0.09737411 0.078625
000010 b2 4f f0 3d ab 7e 0d 3d b7 c5 54 3d 0f 7e 3f 3c
       0.11733951 0.034544628 0.051946368 0.01168777
000020 b2 0a 7d 3e fc 53 7a bc a9 a7 d5 3e af 87 8f 3e
       0.24711111 -0.0152788125 0.41729477 0.28033206
000030 f7 d3 57 3e cc 30 e6 bd e3 94 b0 3e a7 1d 4c bd
       0.21076952 -0.11239776 0.34488592 -0.049832966
000040 1e cd 5d 3e fa 11 d7 3b 79 92 08 3e e1 19 a0 bd
       0.21660277 0.0065634223 0.13337125 -0.07817436
000050 9f e0 8f 3d fc d1 65 3e a3 eb a2 bc af 9b b9 bd
       0.07025265 0.22443384 -0.019887751 -0.090628974
000060 c1 16 e2 3c a3 e0 9b bd 9e 2c 13 3e e9 42 31 3e
       0.02759874 -0.076112054 0.14372489 0.1731068
000070 7d 46 36 3d f8 8a ff 3d 61 f6 0b 3e db b6 29 3e
       0.044500817 0.12477678 0.13668205 0.1657366
000080 79 c2 10 3e e3 35 e4 3d 13 d4 ed bd 51 87 22 3d
       0.14136685 0.111430906 -0.116127156 0.03967983
000090 12 fa b3 bd dd 85 99 3d 4c 74 1f 3e bd 35 bc 3d
       -0.087879315 0.074962355 0.15571707 0.09189937
0000a0 f0 95 18 3e e6 53 b1 3d 13 e7 4a 3d 9b d9 e3 3d
       0.14900947 0.086585805 0.049536776 0.11125489
0000b0 e2 21 97 3e 48 31 24 3f 77 88 e1 3d 7e 54 85 bd
       0.29518038 0.641377 0.11012357 -0.06510256
0000c0 12 85 81 3e cc 23 4c 3e 29 3e cc 3d be b6 0a 3e
       0.25296837 0.1993553 0.099727936 0.13546273
0000d0 5c 3a 28 3e 14 09 03 3d 3d 6a d4 3d be 2b ff 3d
       0.16428512 0.03199108 0.10371826 0.12459515
0000e0 27 b1 a9 3c e0 20 75 3d 82 a5 f5 3c ba 62 a3 bd
       0.020714356 0.059845805 0.029986147 -0.07977815
0000f0 f2 a4 fc 3d 2d 42 c2 3e 6a 35 e8 3d d3 20 8f 3d
       0.12336148 0.37941113 0.11338313 0.069886826
000100 92 b7 81 3e 09 26 3d 3c 91 fb bb 3e b3 c8 b1 3c
       0.25335366 0.011544713 0.36715367 0.021702146
000110 6c 02 da 3c 46 ea 9a bd 69 f7 55 3e 71 16 6e 3e
       0.026612483 -0.07564215 0.2089516 0.23250748
000120 e0 0f 08 be 2f 04 ef 3c da 0c 5e 3e 81 3f b9 3d
       -0.13287306 0.0291768 0.2168459 0.090453155
000130 b1 42 0e 3e dc 6f 9b 3c 89 7f 0e 3e 0d b6 f9 bd
       0.13892628 0.018974237 0.13915838 -0.121929266
000140 3a 56 f3 bd 29 35 05 be bf 2a 6c bd 0b 07 54 3d
       -0.11881681 -0.1300856 -0.057657953 0.05176453
000150 78 60 b2 3d 13 7d 0a bd 7f b7 ed 3d c6 0a a7 3d
       0.08709806 -0.033810686 0.11607265 0.08156352
000160 ab 38 6b 3e 75 a1 7a bc 9c 71 71 3e 56 e6 ca bd
       0.22970836 -0.015297283 0.23578495 -0.09907214
000170 b8 94 06 3e e7 55 05 3e a0 59 80 3e c7 51 2f 3e
       0.13142669 0.1302105 0.25068378 0.1712104
000180 50 71 46 3e 0e fc 2e bd b8 45 0e 3e 7b 2a b6 bc
       0.19379163 -0.042720847 0.13893783 -0.022237053
000190 93 c5 ff 3d 98 55 7e 3c 4a 6e 03 3e cd 05 e6 bd
       0.12488856 0.015523337 0.1283504 -0.11231575
0001a0 2a 36 f8 3d be 05 29 be 17 92 6d 3e cc 63 a1 bd
       0.12119706 -0.16506097 0.2320026 -0.07880363
0001b0 25 ac ad 3c 13 ae 52 3d 17 60 41 3d 25 2a 66 be
       0.021200249 0.05143554 0.04721078 -0.22477014
0001c0 a3 28 1c 3e 71 65 b3 ba 94 59 5b 3e 75 4b 87 3d
       0.15249877 -0.0013686848 0.2142089 0.06606189
0001d0 e5 55 6a 3e 14 a6 c7 3d a1 dc 35 3e f2 6f c7 bd
       0.22884329 0.09748474 0.17759944 -0.09738149
0001e0 bb cb 2b 3e f6 50 98 bd 50 d3 4f bc 89 c3 c4 3d
       0.16776936 -0.07437317 -0.012684658 0.09607608
0001f0 5f 17 17 3b 39 35 03 3c f1 95 3b 3e 8f e2 26 be
       0.0023054702 0.008008295 0.18318917 -0.16297363
000200 9e 69 7d bd de da d7 3d 1d 9c 1e bc 3c ad 5a bd
       -0.061868303 0.105397925 -0.009680775 -0.053387865
000210 79 07 77 3e bc 0a 26 be d2 37 87 be c1 1a cf bc
       0.24123944 -0.16215032 -0.26409775 -0.025281312
000220 5a 99 2a bd 6a 33 4a be 81 39 36 3e 47 d6 58 3b
       -0.041650154 -0.19746175 0.17795373 0.0033086704
000230 44 4d 03 3d 10 29 95 be eb 8e 0a 3e 07 02 b0 bd
       0.032056108 -0.2913289 0.13531081 -0.08594137
000240 83 a6 c8 bd c5 9e 84 be 0f 06 b9 3c 4a 33 0f 3c
       -0.097973846 -0.25902382 0.022585897 0.008740256
000250 1a 72 34 3d 48 43 b7 bd a1 cf 03 3d 33 9a 6f bd
       0.04405413 -0.0894838 0.032180432 -0.058496665
000260 10 40 15 3e 15 05 c0 3d e6 ab cc bd 82 03 60 3c
       0.14575219 0.09375969 -0.099937245 0.013672711
000270 e3 8e 3c bd 4e 99 30 be c3 2b 01 3c f7 f3 8f bd
       -0.046034705 -0.17245981 0.007883969 -0.070289545
000280 53 2a 06 3d 1d d7 f7 3c b4 44 47 bc 38 01 8e bd
       0.032755207 0.030253941 -0.012162376 -0.06933826
000290 03 6f 27 3e 17 e8 9b 3c 27 5a 60 3e 0f b2 f7 bc
       0.16350941 0.019031567 0.2190939 -0.030236272
0002a0 90 b0 3e 3d 29 c2 41 39 55 a4 13 bd a2 47 ae 3c
       0.046555102 0.00018478245 -0.03604539 0.021274392
0002b0 37 62 5b bd fc 65 65 bd 47 16 81 3e d0 5d d4 3d
       -0.05356046 -0.056005463 0.2521231 0.10369456
0002c0 71 e5 39 3d fc b7 cc bd 2d 42 6b 3e 8a c3 eb 3d
       0.045384828 -0.0999603 0.22974463 0.115119055
0002d0 8a 88 37 3d 80 cc 52 bd ba d7 25 3e 20 f5 92 3d
       0.04480795 -0.051464558 0.16195574 0.0717566
0002e0 26 18 89 3e 32 d7 28 be f2 f8 00 3e f0 5a 29 be
       0.26776236 -0.1648834 0.12594965 -0.16538596
0002f0 90 7d 47 3e 68 ef 2a 3d d8 43 ea 3c 4b 6f 8d bd
       0.19481492 0.04173222 0.028596804 -0.06905993
000300 bf 67 6e 3e 2d 59 1e 3c bb f9 84 bb 44 e1 d8 bb
       0.23281763 0.009664816 -0.0040580905 -0.0066186506
000310 b4 8c 87 3e c1 c4 ee bd 93 63 55 3d af 6c f0 bd
       0.26474535 -0.116586216 0.052096914 -0.1173948
000320 76 ae 34 3e 55 48 2d 3c fb cc 7b 3e 97 4d 47 bd
       0.17644677 0.010576327 0.24589913 -0.04865798
000330 dc ac 8b 3e d3 79 38 3d 4e af 33 bd bb 2a d0 3b
       0.2728032 0.045038056 -0.043868355 0.00635275
000340 6a b7 3c 3e 33 e2 f0 3c 9b 02 d8 be 30 7e a1 bc
       0.18429342 0.029404735 -0.42189488 -0.019713491
000350 24 d4 07 3e 40 0b 77 bc 72 47 ef 3d 21 54 04 be
       0.13264519 -0.015078366 0.11683549 -0.12922718
000360 ee c4 c8 3d 69 2c 1d be f2 40 3d be dc c3 8b 3d
       0.09803186 -0.15348972 -0.18481806 0.068244666
000370 69 f6 a5 be eb 60 f9 bd b8 5e a0 bd 70 22 f8 3d
       -0.3241456 -0.12176689 -0.07830566 0.121159434
000380 fd 49 38 3d 28 b6 7d 3d f6 51 2b 3e b1 ad 8b bd
       0.044992436 0.061941296 0.16730484 -0.068202384
000390 3c 1b c8 3c 58 2a db bc 12 36 24 be 7f d0 36 3d
       0.024427049 -0.02675359 -0.16036251 0.04463243
0003a0 b3 45 81 be 54 03 6c bd 1e df a5 3e 54 c5 16 bd
       -0.2524849 -0.05762036 0.32396787 -0.03680928
0003b0 2e 3d 2f 3e 93 20 1b 3d 11 0f 67 3e 8e e4 9b 3d
       0.17113182 0.037872862 0.22564341 0.07611953
0003c0 6b 9b 92 be 8f 94 85 3c 57 9a 79 be f0 6b 1a bd
       -0.286342 0.01630619 -0.24375282 -0.037700593
0003d0 21 93 f0 3e 2a 22 3c 3c 17 96 47 3e ab 65 43 bd
       0.4698725 0.011482755 0.19490848 -0.04770438
0003e0 e2 4b 83 3e 9d 86 ee bc ae 51 62 3e 05 ef ea bc
       0.25643831 -0.029116923 0.22101471 -0.028678427
0003f0 42 8d 10 3e a5 46 98 bd fe 8f e0 bd e0 c3 f0 3d
       0.14116386 -0.074353494 -0.10964964 0.1175611

lstm.weight_hh_l0 f4 [200, 50]
000000 16 f4 bc 3d 53 0b 9b 3d df 94 a2 3c 4e be 34 3d
       0.09226243 0.07570519 0.019846378 0.0441268
000010 9c 23 8c 3d 4a ab 6b 3c 5f 99 e7 3d 1a 73 26 bd
       0.068427294 0.0143841 0.1130855 -0.040637113
000020 4c ec 49 3d dd 79 13 be f2 d5 e2 3d ae 82 43 bb
       0.049297616 -0.14401956 0.11075963 -0.002983253
000030 2f c1 6d 3d 16 b6 73 bd 31 94 15 be 0c 8d 14 be
       0.058045562 -0.059499823 -0.14607312 -0.1450693
000040 64 7c 01 bd 1b f5 80 3d d7 31 ab bd 85 fa 26 3d
       -0.03161277 0.0629675 -0.083591156 0.040766258
000050 5c a7 40 3c a3 98 01 3d 0d 71 b9 3d c7 d6 5b bd
       0.011758652 0.031639706 0.09054766 -0.053671625
000060 cc 14 8a bc 15 15 7d 3d 69 72 eb 3d 92 53 0e be
       -0.01685562 0.061787684 0.114964314 -0.13899067
000070 e0 63 b6 3d 79 09 24 3e db 84 4a 3e a6 00 a5 bd
       0.089057684 0.16019239 0.19777243 -0.08056764
000080 3f 0e 8f 3d 93 d3 3f bc ca a8 1a be e3 15 32 be
       0.06985139 -0.011708158 -0.1510345 -0.17391162
000090 aa e8 09 be 1b c9 9a bd 17 8a 19 3e a2 c1 7a bc
       -0.1346766 -0.07557889 0.14994083 -0.015304955
0000a0 00 0b 14 3e b2 6c 8a 3c c5 88 fb 3d a2 3e cb 3b
       0.14457321 0.016897533 0.12281946 0.006202535
0000b0 5e 99 60 bd 58 12 19 3e 70 c5 ab 3d 9d 77 dd bd
       -0.054833762 0.14948404 0.083872676 -0.1081383
0000c0 85 d4 16 bd c2 63 4c be 54 b3 22 bd ac f8 96 bc
       -0.03682377 -0.1995993 -0.039721802 -0.018429123
0000d0 4a b3 c0 bd 88 37 d5 bc 53 45 35 3e 0d 5e 1f 3d
       -0.09409197 -0.026027456 0.17702226 0.038908053
0000e0 2a f5 a8 bc 54 3d 12 bd f8 f5 ba 3d 5e 77 90 3d
       -0.020624716 -0.03570302 0.09128946 0.070540175
0000f0 62 95 34 3d 8f f9 5c 3d 4e df 21 3e 4d 5f 06 3e
       0.044087775 0.053948935 0.1580784 0.13122292
000100 85 e2 97 3d cc 75 38 3d 8a 90 2f be 62 00 dd bc
       0.07416252 0.045034215 -0.17144981 -0.026977722
000110 3f b8 29 3d 09 a9 35 3e ea 01 ea bd 61 e0 aa bd
       0.041435476 0.17740263 -0.11426146 -0.08343578
000120 d3 28 24 be 63 96 a5 bd 2e 23 fa 3d 3a fc 3a 3e
       -0.16031198 -0.080853246 0.12213741 0.1826028
000130 5e f8 fd 39 59 09 1f be 5f 33 f4 3c 0c 13 37 be
       0.00048440968 -0.1553091 0.029809652 -0.1787836
000140 04 46 6d bd a9 60 fd 3c ac 64 d3 bc 18 1c e7 bc
       -0.0579281 0.03092988 -0.02580484 -0.028211638
000150 3a 52 07 be f9 f2 5c bd 38 bf 1b 3e fd 5d da bd
       -0.1321496 -0.053942654 0.15209663 -0.10662458
000160 53 f0 37 3e 5d 27 8e bd 6e 4a 1c be c5 89 88 3b
       0.1796277 -0.06941102 -0.15262768 0.004166814
000170 81 29 0d be 0f 11 a5 bd 9b ae e4 3d 42 a3 05 3e
       -0.13785364 -0.08059894 0.11166116 0.13050559
000180 c0 99 f8 bc 5c 6f cf 3c d9 82 fb 3d f9 99 de bd
       -0.030346751 0.025321655 0.122808166 -0.10869212
000190 73 8e bf b9 91 65 ee 3b df d5 9e 3d 28 0b 9f 3c
       -0.00036536492 0.0072752913 0.077556364 0.0194145
0001a0 5f 80 0c 3d 11 98 11 bc ae e5 86 bd 35 b2 ac 3b
       0.03430211 -0.008886353 -0.06586777 0.0052702674
0001b0 db d1 45 3c 9b fd d1 bd 49 8e d1 bd 8a 2b 94 bd
       0.012073959 -0.102534495 -0.10232217 -0.07234867
0001c0 27 c2 28 3d 50 cd 17 3e 6f 33 19 be ba aa d6 3c
       0.041200783 0.14824414 -0.14961027 0.026204456
0001d0 f5 a0 b9 bc 24 44 3d 3e 46 30 95 3d 7d 6a 91 3d
       -0.022659758 0.18483025 0.07284598 0.07100389
0001e0 dd ab db bd 8d c9 7c 3d 94 c6 f9 3d d9 82 99 bd
       -0.1072614 0.06171565 0.12196079 -0.0749566
0001f0 7a 66 67 bd 26 c4 90 3d 1e 2c cb 3d 7e 9f 97 bd
       -0.056494214 0.07068662 0.09920524 -0.074034676
000200 a5 68 d6 3d b8 8c a8 bd 8a c4 aa 3c 6d b7 29 bd
       0.10469178 -0.08229965 0.02084567 -0.041434694
000210 62 de 9c 3a e4 61 ae bb 37 80 a5 3d 3e bd 6d bd
       0.0011968131 -0.005321728 0.08081096 -0.058041804
000220 0c 1c 3a be 87 fb f6 bd 45 89 23 3e 67 bf fe bd
       -0.18174762 -0.12059694 0.15970333 -0.12438851
000230 7c ed 2b bd 44 90 59 3d 74 48 26 be 6f 01 f9 3c
       -0.04197453 0.053116098 -0.16238576 0.030396191
000240 9c 7b 47 3c 80 45 82 bc 95 86 b8 bd 47 c9 5a 3d
       0.012175467 -0.01590228 -0.090100445 0.05341461
000250 e1 4a ab 3d 41 2b 1e be c0 dd e5 3d f0 18 eb 3d
       0.083638914 -0.15446188 0.11223936 0.11479366
000260 e2 1a b3 bd 17 49 e1 3b 41 99 b8 bd 2c 4e ba bd
       -0.08745362 0.006875168 -0.09013606 -0.09096941
000270 23 71 3c 3d 54 b8 05 be c9 a3 a5 3d 0c df f5 3c
       0.046006333 -0.13058597 0.0808788 0.030013584
000280 e1 30 8f bd 1d 37 15 3c 10 9f 3a 3d ec 1e 70 bb
       -0.06991745 0.009107378 0.04556185 -0.0036639525
000290 c6 1a e9 bd bf a8 d0 3d 9e 34 7c 3d 19 3b eb 3d
       -0.1138206 0.10188436 0.061573617 0.11485881
0002a0 6b ab 1c be 49 d2 6d bd 76 1f 11 be 9e 47 fa 3d
       -0.15299766 -0.05806187 -0.14172158 0.12220691
0002b0 3a f9 6e 3d e2 e6 df 3b 4a a6 d3 3d 2e 85 e6 bd
       0.05834315 0.0068329433 0.103344515 -0.11255871
0002c0 2a d3 91 3d 2d 11 02 bd d4 3e c5 bd 39 a8 de bc
       0.071203545 -0.03175466 -0.09631124 -0.027179824
0002d0 ac cc 5c bc fa 27 05 be 85 44 80 bc 57 da c1 bd
       -0.013476532 -0.13003531 -0.015657673 -0.09465473
0002e0 47 93 54 bd 61 1f 8a bd 19 3d 74 be 0c 10 7a 3d
       -0.051898267 -0.06744266 -0.23851432 0.06105046
0002f0 11 30 15 3e 79 c3 17 3c d7 c8 28 3e 32 35 27 3d
       0.14569117 0.009262913 0.16482864 0.040822215
000300 c0 17 ce bd f0 61 fc bd 9e ca 10 ba 63 eb 1a bd
       -0.10063124 -0.123233676 -0.00055233564 -0.03782214
000310 f5 d1 10 3e c7 fc 0c be 24 50 e4 3d 79 af fd bd
       0.14142592 -0.13768302 0.11148098 -0.123869844
000320 4f 6c cc 3d 96 71 08 3e f7 0c 8a bd fe fa 00 bd
       0.09981596 0.1332458 -0.06740754 -0.031489365
000330 7d 24 50 3c 54 15 e6 bd 86 51 00 be 73 16 06 3e
       0.012704012 -0.11234537 -0.12531099 0.13094501
000340 01 78 b7 bb 3a 93 f6 bb 80 56 cc bc 30 69 cc bd
       -0.0055990224 -0.007524875 -0.02494359 -0.099810004
000350 27 44 26 be 37 cb f6 bd 6f 48 de bd 5b 6b 17 bc
       -0.16236936 -0.12050479 -0.10853659 -0.009241904
000360 2e a2 ef 3d 95 e3 bf 3d b1 f1 95 bd 61 f4 0e 3c
       0.11700855 0.0936958 -0.073214896 0.008725257
000370 b0 9a a2 bd aa 1f c7 bd 81 7e 87 bd 4d 3b 28 bd
       -0.079396605 -0.09722836 -0.066159256 -0.04107218
000380 c0 10 a1 bc aa 1e 04 be f4 af 02 3e a1 4b 3e be
       -0.019661307 -0.12902322 0.12762433 -0.18583538
000390 05 a3 b8 3b 48 37 64 bd 7e 24 86 bd e3 51 7b 3d
       0.005634668 -0.055716783 -0.06549929 0.06135739
0003a0 2f ae 96 3d c4 31 de 3d bf 4d 15 be 22 08 93 bd
       0.07357442 0.10849336 -0.14580439 -0.071792856
0003b0 78 08 ba bd a8 0c 10 be c7 26 91 bd 8a 6a 25 3d
       -0.090836465 -0.14067328 -0.07087474 0.040384807
0003c0 b1 e0 91 3d 25 7c d0 3d ba 63 e0 3c 46 82 ce bc
       0.071229346 0.10179929 0.027391303 -0.025208604
0003d0 8b 48 01 be 14 ba ea ba 57 e9 0e 3e c9 fd ac 3d
       -0.12625329 -0.0017908239 0.139562 0.08446843
0003e0 8e 06 90 bd 5b 88 bf 3d 0b c7 55 3e cf 50 18 3e
       -0.070325 0.093521796 0.2087671 0.14874576
0003f0 8d 81 d9 3d 44 0e 82 bd 12 4c f1 3c 07 11 bb bb
       0.10620413 -0.06350377 0.029455218 -0.005708817

lstm.bias_ih_l0 f4 [200]
000000 1f be bd 3d e8 d4 84 3c 34 49 1d 3d 39 6d 0b bd
       0.09264778 0.016214803 0.03839989 -0.03403971
000010 b8 3e 46 3d c4 af cf 3e 75 14 ad 3a 52 f3 81 bd
       0.048399657 0.40563786 0.0013204949 -0.06345238
000020 5a 7e c6 bd 4b 4e d1 3d ed 68 96 3d f5 2e 01 3e
       -0.096920684 0.10220011 0.07344232 0.12615569
000030 11 43 30 3d 6d f4 98 bd ab 7e ea bd e7 2f cc 3d
       0.04303271 -0.074684955 -0.11449941 0.09970074
000040 a9 ed 94 3d 18 96 ae 3d 17 27 0f 3e ce 8a 1e 3c
       0.072718926 0.08524722 0.13979755 0.009676648
000050 8e 9e 75 3e e2 34 e2 3d 20 42 06 3f c8 31 3c bd
       0.23986265 0.11045243 0.5244465 -0.045945913
000060 e6 9b 1f 3c 8f b5 3d 3e 11 c2 f4 bd 11 db 45 3d
       0.009741759 0.1852629 -0.11951078 0.04830462
000070 db e1 24 3e 5d 27 50 3d da 6b 8f 3e e8 3a 17 3e
       0.16101782 0.05081879 0.28011972 0.14768565
000080 a9 c2 7a bd 4e 6f 91 3d 32 e0 3e bc e1 0f 36 3e
       -0.0612208 0.07101308 -0.011650132 0.17779495
000090 8f e0 d4 3d 1b e9 4c 3d c9 ae b0 3d d0 3b 12 be
       0.10394394 0.050026994 0.086270876 -0.14280629
0000a0 d0 e1 bc bd af f4 bb 3d 41 b0 cc bc 6f 9a 07 3e
       -0.09222758 0.09177529 -0.024986388 0.13242505
0000b0 06 ff a2 bd 47 cb 26 3d ae 99 4f bd b1 64 10 3c
       -0.07958798 0.040721204 -0.05068367 0.008813069
0000c0 9e 72 bc 3b a1 2b a4 3d ba 20 f4 bd 67 90 0e be
       0.005750968 0.08016134 -0.119203046 -0.13922273
0000d0 c3 78 b7 3c 6b 44 5c bd e2 d2 a9 3c 42 8c 87 bd
       0.02239645 -0.053776186 0.02073044 -0.06618549
0000e0 3b d7 d6 bd 59 35 05 3c 26 3e 3e 3d 25 78 db bd
       -0.10490271 0.008130395 0.046445988 -0.10716275
0000f0 99 b0 a7 3d 74 fd da 3d 68 d1 1e 3d c6 55 fa bd
       0.0818798 0.106928736 0.038773924 -0.12223391
000100 63 ef 6f bd c6 e9 ce 3d 3d bd 89 3d f7 48 23 be
       -0.058577906 0.101031825 0.067255475 -0.15945803
000110 7a de 24 3c 4d 04 25 bd d2 2a 8b 3b fb af 9b ba
       0.010062808 -0.040287305 0.004247048 -0.0011878008
000120 16 98 3e be 1c b0 fc 3d 23 96 f9 bc 32 4e bf bd
       -0.18612704 0.12338278 -0.030467099 -0.093410864
000130 92 76 85 bd a0 14 ac bd ce 5e 39 bc 32 e2 6c bd
       -0.06516756 -0.084023714 -0.011314107 -0.057832904
000140 fa 71 89 bc 32 08 97 bd 30 67 7e bd a7 8b 96 3c
       -0.016777981 -0.0737461 -0.062110126 0.018377138
000150 29 06 20 bd d8 11 14 3d 16 4a 10 3e 60 d0 93 bd
       -0.039068375 0.03614983 0.14090762 -0.07217479
000160 b2 37 b1 3d 63 68 d8 bd 71 8b 6f 3b 07 f0 5b bd
       0.08653201 -0.10566785 0.003655162 -0.053695705
000170 7f 39 4e 3c 7f 41 8f bd 98 0f f4 bc 4f 79 da bd
       0.01258695 -0.06994914 -0.029792592 -0.10667669
000180 e4 7a b1 bd 55 0a d2 3c cc 2f 05 3e ad a8 2e 3d
       -0.08666018 0.025639692 0.13006514 0.04264133
000190 15 05 88 3c 44 75 60 bd 72 45 a6 3d 7b 82 c2 bc
       0.016603986 -0.054799333 0.081187144 -0.023743859
0001a0 f4 d6 df bd 8a ea b3 3c 90 0f 33 3d 60 57 e0 3d
       -0.10929671 0.021962423 0.043716013 0.109541655
0001b0 45 f3 c9 3d 4a a7 bc bd e4 08 f6 3d 70 59 a3 3d
       0.09860853 -0.09211595 0.120134145 0.07976043
0001c0 f2 12 c9 3d 02 1c 8f 3d 1f 09 87 bd bf 54 04 39
       0.09818067 0.06987764 -0.065935366 0.00012620071
0001d0 c6 62 32 bd de 52 a5 bd a1 65 31 bd 55 e3 dd 3c
       -0.04355123 -0.08072446 -0.04330981 0.02708594
0001e0 3e 7a 9c 3d dc 30 04 bd 2c 26 a3 bc 63 77 2f bd
       0.07640503 -0.03227316 -0.019915663 -0.042838465
0001f0 22 5f ed bc d4 70 1d bd 27 09 c3 3d ca 30 ef bb
       -0.028976027 -0.03843768 0.0952323 -0.0072995173
000200 0b fe 93 3d 22 f7 54 bd c5 ad 10 bd b3 e9 1d be
       0.07226189 -0.051993497 -0.03532197 -0.1542118
000210 0a af 64 3d 18 64 92 3b 1a f7 5d bc 59 3d 08 3e
       0.055830993 0.0044674985 -0.013547683 0.13304652
000220 d4 fc ac 3d 98 16 09 bd 75 70 35 bd dd 20 8c bd
       0.08446661 -0.033468813 -0.0442967 -0.06842206
000230 1f b2 af bd c8 86 97 bd c8 12 b4 bd f2 49 2f 3c
       -0.08578896 -0.07398754 -0.08792645 0.010698782
000240 d7 7f e7 3b 0b 8e a6 3c e9 36 0c 3e a7 18 84 3d
       0.0070648002 0.020331403 0.13692822 0.064500146
000250 21 38 b2 bc ad 92 b1 bd 26 cc bf 3c d4 a3 3d 3e
       -0.02175528 -0.08670554 0.023412775 0.18519527
000260 2d 02 b9 3c 33 b2 23 be 57 38 5c 3c ca b1 dc 3e
       0.022584045 -0.15985946 0.013441167 0.43104392
000270 00 b8 c4 3c 1d 13 c7 3b e1 41 69 3d 30 85 5e 3d
       0.02401352 0.0060752765 0.056947593 0.054326236
000280 17 84 84 3e 2b 51 47 bd 9b e5 08 be b1 40 02 3e
       0.25882027 -0.048661392 -0.13368838 0.1271999
000290 7b 5b 8f bd ae 09 d0 ba b5 44 a3 bd f5 45 19 3e
       -0.069998704 -0.0015872025 -0.07972089 0.14968093
0002a0 29 94 f2 3b d8 cb 5d bd f2 45 67 3e 38 65 c2 3d
       0.007402916 -0.05414948 0.22585276 0.09491962
0002b0 9f be 15 3f 0b 47 cb 3d 59 f8 1c bc 03 d8 e8 3d
       0.5849399 0.0992566 -0.009580695 0.11369326
0002c0 d0 dc 7c bd e3 1a 94 bd 2c b8 72 3c 02 be 9f bd
       -0.06173402 -0.07231691 0.014814418 -0.07799913
0002d0 36 2c e2 3d 24 fe 3a 3e 24 09 b4 bd 31 fd fe bd
       0.11043589 0.1826101 -0.08790806 -0.12450636
0002e0 d0 dc b6 bd 51 54 58 3e 78 04 03 3e c1 ae d1 3c
       -0.089288354 0.21125914 0.12794673 0.025596024
0002f0 97 4f 2d 3e fe 0d 42 bd 15 73 ba bc 07 d3 87 3d
       0.16924892 -0.047376625 -0.022759954 0.06632047
000300 80 0b d6 3d b2 23 05 3e a2 c3 c9 3c 8f cf 2e 3c
       0.10451412 0.13001898 0.024629418 0.010669603
000310 e2 16 fc 3d 31 c3 25 3c 1f 0f ba bd 57 9f 35 3e
       0.12309052 0.010117338 -0.09084915 0.17736565

lstm.bias_hh_l0 f4 [200]
000000 62 51 3a 3d 0f 0f 6b bc 96 ab 9e 3d d1 a8 9b 3c
       0.04548777 -0.014346852 0.07747571 0.019001396
000010 b5 58 e0 3d 32 9f e9 3e f2 f7 d8 3d 6f 08 e5 bd
       0.109544195 0.4562927 0.10594167 -0.11183249
000020 04 7e e6 3d 6a f2 20 bd cb ac 80 3e ab 22 12 be
       0.11254504 -0.039293684 0.2513183 -0.14271037
000030 34 13 82 3d ff a2 41 3e 51 85 97 bc fb ca f0 3c
       0.06351319 0.18909834 -0.018496187 0.029393664
000040 73 46 90 bd b4 1d 1d 3e c1 56 58 bd 9a 83 be 3d
       -0.07044687 0.15343362 -0.05281711 0.09302445
000050 85 cc 9c 3e 07 e7 29 bd 4a 26 2a 3f 6a 9e bd 3c
       0.30624786 -0.04148009 0.66464674 0.023146827
000060 f8 b5 10 3e d9 f4 0a 3e da f2 a4 bd dd 7b d4 bb
       0.14131916 0.13569964 -0.08054133 -0.006484492
000070 bc 64 22 3c af 92 90 bd 9c 80 63 3e fc c2 46 3e
       0.009911712 -0.07059228 0.2221703 0.19410318
000080 32 f4 17 3d e2 d6 fb bc b6 ef a8 bd 83 66 b7 3e
       0.037098117 -0.030742113 -0.08248846 0.35820398
000090 49 eb 6e 3b 4c e1 98 3d 23 e9 b3 bb b0 25 59 bd
       0.003645616 0.07464847 -0.0054904385 -0.053014457
0000a0 2c 0e 5e bd f8 a8 08 3e 0a ea 32 bd aa 4f c7 3d
       -0.054212734 0.13345706 -0.04368023 0.097319916
0000b0 94 2a c2 bd 2c 68 3a 3e 7a df b3 bd 10 19 c8 3d
       -0.094807774 0.18203801 -0.08782859 0.09770405
0000c0 2d 06 90 bb 2c 30 44 3d 7e 44 d4 3d c1 ba 6b bd
       -0.0043952675 0.047897503 0.10364626 -0.05755115
0000d0 db e3 0b 3c 6f ee b3 3d a4 62 c5 3c b5 2d f3 bb
       0.008538212 0.08785712 0.024094887 -0.00742122
0000e0 6d 18 ef 3d 43 f9 89 bc 8e 55 97 3d e1 8e d1 bd
       0.11674581 -0.01684249 0.07389365 -0.1023233
0000f0 3c e4 26 be 37 c5 6c 3d a3 4f a7 3c 53 e2 f0 3d
       -0.16298002 0.057805266 0.020423716 0.11761918
000100 e9 ec 6d 3d fe d1 c0 3c 3d c6 87 3d 93 c2 1a be
       0.058087263 0.023537632 0.06629608 -0.15113287
000110 c2 0f 91 3c 83 b7 03 3c 2e b0 3c be 01 01 9f bd
       0.01770771 0.008039358 -0.18426582 -0.07763863
000120 d7 0b 17 be 3d 1d ca 3c 0a fb b1 3d 6d f5 e3 bc
       -0.1475061 0.024672145 0.0869046 -0.02782699
000130 44 10 1d be 50 d9 e9 bd 10 dd 80 bc 13 71 b6 bd
       -0.15338236 -0.11418402 -0.01573041 -0.08908286
000140 2c 73 7c bd fc bd cd 3d b5 dc 62 bd 61 ce 69 bc
       -0.061633274 0.10046002 -0.055386264 -0.014270396
000150 79 15 d5 3d fe 40 a1 bd 5b 3a 6a ba a0 a6 13 3d
       0.10404486 -0.078737244 -0.0008935087 0.036047578
000160 14 6b 54 bc 0b 45 ad bd 47 1f b5 3d b2 22 8f 3d
       -0.012964983 -0.084604345 0.08843856 0.069890395
000170 7a 2f 39 3d f8 06 38 3d aa 2c 17 3d 97 78 27 3c
       0.045211293 0.04492852 0.03690783 0.010221622
000180 4f 4d db 3c 81 f4 ad 3d 75 fe a1 3d c5 c0 cd 3d
       0.026770262 0.08493901 0.07909862 0.100465335
000190 16 4d 84 3d 0d 8c 32 3c 43 44 5c bd 88 6f 89 bc
       0.064600155 0.0108976485 -0.053776037 -0.016776815
0001a0 5c 78 c3 3d 56 09 8f 3c 7a 79 eb 3b ac 89 96 3d
       0.09544441 0.017460506 0.007186112 0.073504776
0001b0 d4 0d 3c 3d 3e 7e 0e 3d 61 85 60 3d 64 73 5d 3d
       0.045911625 0.034788363 0.0548147 0.054065123
0001c0 32 a8 8a bd ca db 62 3c cb 1f a7 3c b7 e5 1e bd
       -0.06770362 0.013846347 0.020400902 -0.038793292
0001d0 75 34 d3 3d 4d b3 1a bd 32 26 8d bd 22 31 23 3c
       0.1031274 -0.03776865 -0.06892051 0.009960445
0001e0 3c 11 82 bc 0a 68 2f bd 7d a0 05 bd db cc 56 3d
       -0.015877359 -0.04282383 -0.032623757 0.05244146
0001f0 ca ad 9f 3d bd 13 d5 3d 33 6f 8c 3d a1 43 23 bd
       0.077968195 0.104041554 0.06857147 -0.039859418
000200 d6 d6 72 3d c0 f0 04 bd 13 1f b6 3b aa 47 8b 3d
       0.059286915 -0.03245616 0.0055579036 0.06800778
000210 6c 95 8d 3c 96 04 1b bd 5a bc 0d be 1b 68 a6 bd
       0.017283164 -0.03784617 -0.13841382 -0.08125325
000220 71 82 73 3d 35 54 c3 3c 2b d4 38 3d 50 15 bb 38
       0.05945057 0.023843864 0.045124214 8.9208246e-05
000230 a5 b8 f2 3b d5 aa 75 3d d6 9e c0 bd 54 fc 7c 3d
       0.0074072652 0.05997737 -0.094052956 0.061764076
000240 46 8a 6a 3a 40 66 f2 bc ae b5 57 3c 2b b0 a8 bc
       0.0008946996 -0.029589772 0.013165874 -0.020591816
000250 94 3e 83 bd 5f f6 b2 3d 4f c1 5c bd 88 a0 b4 3d
       -0.0640842 0.08738398 -0.05389529 0.088196814
000260 e6 43 e3 3d c6 9f aa 3d f2 5b ae bd 7a 3d 82 3e
       0.11096935 0.083312556 -0.08513631 0.25437528
000270 de 2f 3c b9 54 5b 0c be 8d 71 0a 3e 98 ef 5c 38
       -0.00017946909 -0.13706714 0.13519879 5.2675226e-05
000280 0d 9a 82 3e 58 89 1c bd a6 ec 6f 3b 09 73 ea 3d
       0.25508156 -0.03821692 0.003660956 0.114477225
000290 ef 04 8e bd 85 34 d3 3d 73 ed d1 bc f0 2d 93 bc
       -0.06934535 0.10312752 -0.02562592 -0.01796624
0002a0 a9 64 dc bd 54 41 8a 3d cb e8 a0 3e de 27 8b bd
       -0.10761387 0.067507416 0.31427607 -0.067947134
0002b0 ff 8f 24 3f e3 c8 09 3e 75 7b 2d 3d 2b e0 62 3e
       0.6428222 0.13455538 0.042354066 0.22155826
0002c0 62 4c 05 3c 6b 67 86 3d 56 2d 84 bd 76 fa fe 3d
       0.008135887 0.06562694 -0.0645396 0.124501154
0002d0 91 b2 07 3e 56 b8 35 3e 70 86 1a 3e fe 99 9e bd
       0.13251711 0.177461 0.15090346 -0.077442154
0002e0 62 a9 cc 3d 13 db 4b 3e ce 39 b5 3d 0e 47 c9 3d
       0.09993245 0.19907789 0.08848916 0.09828006
0002f0 40 9c f9 3d f8 f4 f0 bd 6d e3 b0 bd 49 55 0e 3e
       0.121880054 -0.11765474 -0.08637128 0.13899721
000300 9c 93 e4 bd 21 59 e5 3d cb 61 ea 3d 57 04 39 3e
       -0.11160967 0.111986406 0.11444434 0.18068062
000310 da 3b db b8 cc ee dc 3d 47 ff 72 bc 8b a4 0e 3d
       -0.00010453882 0.107877344 -0.014831371 0.03482489

fc.weight f4 [1, 50]
000000 29 c2 bc 3d a6 fe 82 3e 75 c7 c9 3d 7f 29 f3 bd
       0.092167206 0.25584906 0.098524965 -0.11873149
000010 cb 0c 10 3e 73 85 69 be a2 c6 0a 3e d3 27 83 3d
       0.1406738 -0.22804813 0.13552335 0.0640408
000020 7d 4d dd 3d ac f4 40 be 81 62 72 be 1b c4 1d 3d
       0.10805795 -0.18843335 -0.23670389 0.0385171
000030 7f 5c de 3d 83 a1 06 3e 25 50 c7 3d e0 d1 32 be
       0.10857486 0.1314755 0.09732083 -0.17462873
000040 3d 69 cd bd 0a ef 74 3e 2a 56 16 3e 06 c5 93 3d
       -0.10029838 0.23919311 0.14681306 0.072153136
000050 ab c3 8c be f4 43 b2 bd 5c 70 93 3e e6 82 2f 3e
       -0.27493033 -0.08704367 0.2879666 0.17139778
000060 04 d2 f1 3d eb a1 5e 3e 61 92 92 3d 16 7f 9d 3d
       0.118076354 0.21741454 0.07156826 0.07690255
000070 fe 95 26 be 4f a0 c0 bd f3 89 bf 3e 20 69 04 3e
       -0.16268155 -0.094055764 0.37409934 0.12930727
000080 31 fa 1c be b9 5d a8 bd 12 0b 1e bd 23 85 99 be
       -0.15329815 -0.08221001 -0.038584776 -0.29984388
000090 2f c1 ce 3c 15 bd a2 bd 17 6d b7 3d 2d 85 ca bd
       0.025238601 -0.07946221 0.08956354 -0.098886825
0000a0 be 21 b7 bd 6f ec c1 bd 8f b1 db bd d4 f0 48 be
       -0.08941983 -0.09468924 -0.10727226 -0.19623119
0000b0 02 82 88 3d 62 9e 1f 3e 99 72 a7 3d a7 f1 3c be
       0.06665422 0.15587762 0.08176155 -0.18451558
0000c0 f7 cc fc 3d 53 02 5f be
       0.123437814 -0.2177823
